model/dqn.pt (torch, 656663 bytes, 6 tensors)

linear2.weight f4 [225, 450]
0	0xbc3c98ce	-0.011511041
1	0xbb937a2d	-0.0045006485
2	0x3c7726e7	0.015084959
3	0x3d13ba2e	0.036066227
4	0xbb05b996	-0.0020404807
5	0x3bc8fdaa	0.0061337547
6	0x3d0668d5	0.03281482
7	0xbcb90681	-0.02258611
8	0x3d06b761	0.032889728
9	0xbd1dacaf	-0.038494762
10	0xbce19bf4	-0.027540185
11	0xbcb69024	-0.022285528
12	0xbcb77e12	-0.022398982
13	0x3c345dc4	0.011008684
14	0xbab1d024	-0.0013566059
15	0x3c70b2fc	0.014691111
16	0xbc92b764	-0.017909713
17	0x3d3aba04	0.045587555
18	0x3d2887ba	0.041145064
19	0x3d2dddf9	0.042448018
20	0xbc81eec9	-0.015860932
21	0xbceb1338	-0.028695688
22	0xbb1bb111	-0.0023756663
23	0x3d15955b	0.03651939
24	0xbcaba151	-0.020950945
25	0xbd403fbb	-0.046935778
26	0x3cd4ebe2	0.025991384
27	0xbb3512cf	-0.002762962
28	0x3ca91bf1	0.020643206
29	0xba7fa8ac	-0.0009752612
30	0x3b252fa0	0.0025205389
31	0xbc9b8847	-0.01898588
32	0x3cccf93b	0.025021186
33	0xbd0c8986	-0.03431084
34	0x3cbd635e	0.023118671
35	0xbadfdcd6	-0.0017079364
36	0x3d3c5e38	0.04598829
37	0x3c827d18	0.01592879
38	0xbcb94e1c	-0.022620253
39	0x3cf253df	0.029581008
40	0x3b1b34e6	0.0023682653
41	0x3cd55a43	0.026044017
42	0xbc855911	-0.016277822
43	0x3d101655	0.035177547
44	0x3cb5ac47	0.022176875
45	0x3c4033d0	0.011731103
46	0x3cea49df	0.028599678
47	0xbd387116	-0.045029722
48	0xbd10b844	-0.03533198
49	0xbcdda90a	-0.027058143
50	0xbcf90e13	-0.030402219
51	0xbcf91a88	-0.030408159
52	0xbc324db3	-0.010882783
53	0x3ccbee73	0.024893975
54	0xbc4967af	-0.0122927865
55	0xbcc1d4a4	-0.023660965
56	0xbcfcd1e3	-0.0308618
57	0xbb7e4fb3	-0.0038804829
58	0xbce8a129	-0.02839716
59	0xbd3bd937	-0.04586145
60	0xbbf34bc2	-0.0074248025
61	0x3d3aed1e	0.04563629
62	0x3d39dcf5	0.045376737
63	0x3d2cb022	0.04216016
64	0x3d395ecb	0.045256417
65	0xbd17be84	-0.037046924
66	0x3d3af33f	0.045642134
67	0x3c91d016	0.017799418
68	0xbc9c2605	-0.019061098
69	0xbc2ca817	-0.010538123
70	0x3d23dc7c	0.040005192
71	0xbd37c71f	-0.04486763
72	0x3d3ff8c2	0.046868093
73	0x3bb72f16	0.00559033
74	0x3b82603e	0.003978758
75	0xbb89381f	-0.0041875984
76	0x3d0819f0	0.03322786
77	0x3cacb9bf	0.021084664
78	0x3d3d8ac5	0.04627492
79	0x3c811889	0.01575877
80	0x3b0b25af	0.0021232178
81	0xbcd4d568	-0.025980666
82	0xbcedfbf8	-0.029050812
83	0xbc28889e	-0.010286478
84	0x3baf7dd7	0.0053555775
85	0x3cf8da05	0.030377397
86	0xbcafba01	-0.021450998
87	0x3ca1a286	0.019730818
88	0xbcfea820	-0.031086028
89	0x3cfd16b9	0.030894624
90	0x3cee158e	0.029063012
91	0x3cd2978b	0.025707027
92	0x3d14d9cc	0.03634052
93	0xbb9621fd	-0.0045816884
94	0x3ce6fc8f	0.028196601
95	0xbcd067ae	-0.025440063
96	0xbc611f65	-0.013740395
97	0xbcc87601	-0.024470331
98	0x3d3798da	0.044823505
99	0x3d0e8ab6	0.034800254
100	0x3d1d42b7	0.038393702
101	0x3c44be9b	0.0120083345
102	0xbcb48c36	-0.022039514
103	0x3d06b3a0	0.032886147
104	0xbbab4ca4	-0.005227642
105	0xbd11c4d0	-0.035588086
106	0xbbd055b8	-0.0063578747
107	0xbd2cf99a	-0.042230226
108	0x3b92cb01	0.0044797664
109	0x3d3ff05e	0.04686009
110	0xb8b49b5b	-8.612006e-05
111	0xbce53a83	-0.027982002
112	0xbd265ece	-0.040617757
113	0x3ca7fd69	0.020506578
114	0xbcd38820	-0.025821745
115	0xbcb5d1f4	-0.02219484
116	0x3cb45ee9	0.022017913
117	0x3c89278b	0.016742488
118	0xbcd241bf	-0.025666116
119	0xbbd3d0f5	-0.0064641186
120	0x3cd55f18	0.02604632
121	0x3c96ea10	0.018422157
122	0xbd0f3451	-0.034962002
123	0xbd409297	-0.0470148
124	0x3d206951	0.039162938
125	0xbc3e89ce	-0.011629535
126	0x3d35bcd2	0.044369526
127	0x3c85c83c	0.01633083
128	0xbce94a40	-0.028477788
129	0xbd00161b	-0.03127108
130	0x3cd2fb8d	0.025754714
131	0x3d2fe813	0.042945933
132	0x3bcde9ae	0.0062839603
133	0x3d204238	0.03912565
134	0xbcb45d79	-0.022017227
135	0x3c8e9e42	0.017409448
136	0xbc8a2b3d	-0.01686632
137	0xbcb112f1	-0.021615477
138	0xbd09406e	-0.03350871
139	0xbce9e87b	-0.028553238
140	0xbc54c5e6	-0.012986636
141	0xbc936131	-0.01799068
142	0x3cb44276	0.022004347
143	0xbd0b4f70	-0.034011304
144	0xbce40f98	-0.027839467
145	0xbcea6424	-0.028612204
146	0x3bdbf9a8	0.006713111
147	0x3c874128	0.016510561
148	0x3d0f98fe	0.035058014
149	0x3d288fc2	0.041152723
150	0x3ccc4557	0.024935408
151	0x3cae3d16	0.021269362
152	0xbd0452e6	-0.03230562
153	0xbc0d709b	-0.008632804
154	0x3ca55958	0.020184204
155	0x3cdcdea4	0.026961632
156	0x3d1d7322	0.038439877
157	0x3c3e599b	0.011618043
158	0xbcf5f255	-0.03002278
159	0xbc15fcfc	-0.009154554
160	0xbd023141	-0.031785253
161	0xbd0840f0	-0.033265054
162	0x3c774451	0.0150919715
163	0x3c9c79d0	0.019101053
164	0xbb76ffc1	-0.0037689062
165	0xbba919d5	-0.00516055
166	0x3d1708a1	0.036873464
167	0xbbbe4bef	-0.005807392
168	0x3cab83f0	0.020936936
169	0x3cd1c655	0.025607267
170	0x3cfe5d74	0.031050421
171	0xbbd2c7ef	-0.0064325253
172	0xbd09cc60	-0.033642173
173	0xbc53b24b	-0.012920926
174	0x3cbef27e	0.023308989
175	0x3d3cb3e6	0.046070002
176	0xbd04ab56	-0.03238996
177	0xbd1ace32	-0.0377943
178	0xbd31a384	-0.04336883
179	0xbbeb14ae	-0.007174096
180	0xbcee76cb	-0.02910938
181	0x3d300314	0.042971686
182	0xbc8b708b	-0.017021438
183	0xbcf63287	-0.03005339
184	0x3c5fe9c7	0.013666577
185	0x3d2f4327	0.04278865
186	0x3c9fe9fc	0.019520752
187	0xbd09747c	-0.033558354
188	0xbc791038	-0.015201621
189	0xbc88438f	-0.016633777
190	0xbd2942ab	-0.041323345
191	0x3d3e42bf	0.046450373
192	0x3d1ff9b9	0.039056513
193	0xbbc6b5c8	-0.0060641505
194	0xbd143d06	-0.03619101
195	0xbd14bc1c	-0.036312208
196	0x3cb4e26c	0.022080623
197	0x3d048c90	0.032360613
198	0xbc1b4072	-0.009475814
199	0x3a14390c	0.00056542526
200	0xbd1e317c	-0.03862141
201	0xbd0d585c	-0.034508094
202	0xbbeb2aca	-0.0071767317
203	0xbbe25698	-0.0069072954
204	0x3d2aefdc	0.041732654
205	0xbd3697d8	-0.044578403
206	0xbc9e49da	-0.019322325
207	0x3cb573be	0.022149917
208	0xbc9e2710	-0.019305736
209	0x3ce908bd	0.02844655
210	0xbc678d7e	-0.014132855
211	0x3c4b1df8	0.012397282
212	0x3d207b80	0.03918028
213	0x3d35e990	0.044412196
214	0xbd357143	-0.044297468
215	0x3bfe6d7e	0.0077645173
216	0x3d108198	0.03527984
217	0xbc1f3c42	-0.009718956
218	0x3cb9f05e	0.022697624
219	0xbd3e5be6	-0.04647436
220	0xbc238878	-0.009981267
221	0xbcfaa8ba	-0.030598033
222	0xbcf22597	-0.02955894
223	0xbabd04ec	-0.0014421022
224	0x3c882cd3	0.016622936
225	0x3cd5199f	0.026013194
226	0xbc432439	-0.011910492
227	0xbcc157c4	-0.02360142
228	0xbcd4d124	-0.025978632
229	0x3d0f57fe	0.034996025
230	0x3d0cd4d4	0.034382656
231	0x3d38dfed	0.045135427
232	0x3c861561	0.016367616
233	0x3bf23dbd	0.0073926137
234	0xbd0c9e03	-0.03433038
235	0xbc3f7a7b	-0.011686916
236	0xbbb6b139	-0.005575326
237	0x3bb426eb	0.0054978034
238	0x3c216b6a	0.00985227
239	0xbcf4b72a	-0.029872496
240	0xbd23d83e	-0.040001146
241	0x3d04b03a	0.032394625
242	0x3cb1df4f	0.021712927
243	0xbc752f77	-0.01496493
244	0x3d1631b3	0.03666849
245	0x3c0ae635	0.008477737
246	0x3cfb0696	0.030642789
247	0xbc608cf4	-0.013705481
248	0xbc3aff9a	-0.011413479
249	0xbd200e2d	-0.03907602
250	0xbcdc162a	-0.026866037
251	0xbb109fd4	-0.0022067921
252	0xbb9e405d	-0.00482945
253	0x3d23cd85	0.03999092
254	0xbd10db70	-0.035365522
255	0xbc22c0ff	-0.009933709

linear2.bias f4 [225]
0	0xbcd6026f	-0.026124207
1	0xbce7b4b1	-0.028284403
2	0x3d952a45	0.07283453
3	0xbd1bfb83	-0.038081657
4	0xbd0d8a61	-0.034555797
5	0x3d9a6b33	0.07539978
6	0x3da1993d	0.07890556
7	0xbd2e7902	-0.04259587
8	0xbd37ab85	-0.04484131
9	0xbce4021f	-0.027833043
10	0xbc5ea628	-0.013589419
11	0xbd32a732	-0.04361648
12	0xbcd7e734	-0.026355363
13	0xbcfeae98	-0.031089112
14	0xbcbc20ff	-0.022964953
15	0xbcd6a10d	-0.026199842
16	0x3d947f00	0.07250786
17	0xbbbd8b4e	-0.0057844287
18	0x3d97c9cf	0.07411539
19	0xbd0ac40b	-0.033878367
20	0xbd302c52	-0.043011017
21	0xbcbc085e	-0.022953209
22	0x3dd0f11c	0.10202238
23	0x3dc2e2b6	0.09515898
24	0xbd3e9bd5	-0.04653533
25	0xbd02ad59	-0.0319036
26	0xbb57cd3d	-0.0032928728
27	0xbd00671d	-0.031348336
28	0x3da5783e	0.08079575
29	0xbc043952	-0.008070307
30	0xbd2d6304	-0.042330757
31	0xbd11ac06	-0.035564445
32	0xbc905a8b	-0.0176213
33	0xbb4e0b09	-0.0031439683
34	0xbd3ced29	-0.04612461
35	0xbd22933d	-0.0396912
36	0x3d4f6b53	0.05063946
37	0x3d988fe7	0.07449322
38	0x3da06e42	0.0783353
39	0x3dba2af4	0.09090224
40	0xbc6efe82	-0.014587047
41	0xbc95b04c	-0.018272541
42	0xbb046bbd	-0.0020205819
43	0xbb35bfa1	-0.0027732628
44	0x3d8a462e	0.06751667
45	0xbb341ffd	-0.0027484887
46	0xbb08a462	-0.0020849933
47	0xbc1f4bb9	-0.0097226435
48	0xbbb5cef2	-0.0055483514
49	0xbc516d37	-0.0127823865
50	0xbd1d61f3	-0.03842349
51	0xbb710d02	-0.0036781435
52	0xbd275865	-0.040855784
53	0xbc6a240d	-0.014290822
54	0x3d78f436	0.060779773
55	0x3d898dd5	0.067165054
56	0x3d94ef34	0.07272187
57	0xbd2dfb9a	-0.042476274
58	0x3da31d5b	0.079645835
59	0xbcae5b2f	-0.021283714
60	0xbc77b179	-0.015117996
61	0xbb8bb24e	-0.004263199
62	0x3da9576d	0.08268628
63	0x3d8a2db0	0.067469954
64	0xbc7b51a5	-0.01533929
65	0xbc24d201	-0.010059834
66	0xbd17b779	-0.037040208
67	0xbd3d001d	-0.046142686
68	0xbcc1a5a2	-0.02363855
69	0xbd0cec50	-0.034405053
70	0xbd0753ff	-0.03303909
71	0xbc17c38f	-0.009262933
72	0xbccba1cf	-0.02485743
73	0x3d845b82	0.06462766
74	0xbc8c8566	-0.017153453
75	0x3d629ff6	0.055328332
76	0xbba885ab	-0.0051428876
77	0x3d8e9df6	0.069637224
78	0x3d9cfd1e	0.07665466
79	0xbcf02b3b	-0.029317489
80	0xbc1c52a3	-0.0095411865
81	0x3dc49a12	0.09599699
82	0x3d9df623	0.077129625
83	0x3d8c2137	0.06842273
84	0x3d7de483	0.061985504
85	0x3d86a6b0	0.06574762
86	0x3d77383a	0.060356356
87	0xbd0d8ba4	-0.034557
88	0xbd008780	-0.031379223
89	0xbb3fdd5c	-0.0029276228
90	0x3dccf46c	0.10007557
91	0x3d97ef18	0.074186504
92	0xbc982d7f	-0.018576382
93	0xbb6858b1	-0.0035453255
94	0x3d92c342	0.07166149
95	0xbcd6f562	-0.026240055
96	0xbc833bcc	-0.016019724
97	0xbc159c83	-0.009131554
98	0xbbee17e3	-0.007266031
99	0xbc107f7e	-0.008819459
100	0x3d732e6b	0.05937044
101	0xbcfcfcff	-0.030882357
102	0xbab95e08	-0.0014142403
103	0xbd2515fd	-0.040304173
104	0xbc8cbbc9	-0.017179387
105	0xba6d9d49	-0.000906427
106	0xbc23edd2	-0.010005431
107	0x3d908cdc	0.07058117
108	0x3da1b541	0.078958996
109	0xbcb7fbdd	-0.022458965
110	0x3d3b7319	0.045764063
111	0x3dad4791	0.08460916
112	0x3d7c03e4	0.061527148
113	0xbbb672c9	-0.0055678827
114	0x3d992c01	0.07479096
115	0xbc7eb781	-0.01554668
116	0x3d93dd6e	0.07219969
117	0x3db294f5	0.087198175
118	0x3d8cfd4e	0.068842515
119	0xbd37a99e	-0.044839494
120	0xbd25165f	-0.040304538
121	0xbce28cce	-0.027655032
122	0xbd3e0393	-0.046390127
123	0xbcf6ee2e	-0.03014287
124	0x3de028c5	0.10945276
125	0xbc8d595a	-0.01725452
126	0x3d62c9f3	0.055368375
127	0x3d967270	0.07346046
128	0x3c0cef1d	0.008601931
129	0x3d812ee9	0.063077755
130	0xbc422f3c	-0.011852082
131	0x3d115051	0.035476986
132	0x3d6d31ab	0.057908695
133	0xbd2ee226	-0.04269614
134	0x3d82f309	0.063940115
135	0xbb5a1b52	-0.0033280444
136	0x3dc5adaf	0.09652268
137	0xbcabc0ab	-0.020965895
138	0x3d864eeb	0.06558021
139	0x3d8c4df6	0.06850807
140	0xbce6ae24	-0.028159209
141	0x3d8802de	0.06641172
142	0xbd1d7f21	-0.038451318
143	0x3d9643e8	0.07337171
144	0xbcf4280c	-0.029804252
145	0x3ddde7d4	0.10835233
146	0xbc80228b	-0.015641471
147	0xbcfa8182	-0.030579332
148	0x3da21b70	0.079153895
149	0xbc176edf	-0.009242742
150	0xbcbd1133	-0.02307949
151	0x3d99ff8c	0.07519445
152	0xbd123225	-0.035692353
153	0x3d2a03fa	0.0415077
154	0xba7c63d6	-0.0009627914
155	0x3dc54b98	0.09633559
156	0x3d8e65f6	0.06953041
157	0x3dcbf700	0.09959221
158	0xbc6146b0	-0.013749763
159	0xbc0c0b0c	-0.008547556
160	0xbc33bf1e	-0.010970859
161	0xbd0f72e8	-0.035021693
162	0xbd1aaf29	-0.037764702
163	0xbcb9da39	-0.022687064
164	0xbce5be5d	-0.028044874
165	0xb711da41	-8.69349e-06
166	0x3d8171aa	0.06320508
167	0xbcef48a6	-0.029209446
168	0xbcb87d47	-0.022520674
169	0xbca60ad4	-0.020268835
170	0xbc777546	-0.015103644
171	0xbc363f1e	-0.011123447
172	0x3da608cb	0.08107146
173	0xbb1af8d7	-0.0023646855
174	0xbd344fd0	-0.044021428
175	0x3dc24282	0.094853416
176	0xbd052b24	-0.032511845
177	0x3dacc1db	0.084354125
178	0x3d95b08a	0.07309063
179	0x3da0530a	0.078283384
180	0xbd2a84a8	-0.041630417
181	0x3d922c9a	0.07137413
182	0xbc987ecd	-0.01861515
183	0xbccbac80	-0.024862528
184	0x3d7c60bc	0.06161569
185	0x3cf0d3b3	0.029397821
186	0xbd08851a	-0.03333006
187	0xbd15487b	-0.036446076
188	0xbd01e413	-0.03171165
189	0xbd089589	-0.033345733
190	0x3da0dc70	0.07854545
191	0xbc6841c2	-0.014175834
192	0x3d7972f9	0.060900662
193	0xbbd2c813	-0.006432542
194	0xbc1e6a7c	-0.009668943
195	0x3d901306	0.070348784
196	0xbd230eb3	-0.03980894
197	0xbb86cf7a	-0.0041140886
198	0xbd2cf329	-0.042224083
199	0x3d878401	0.066169746
200	0x3d8b1bda	0.06792422
201	0x3d95363d	0.07285736
202	0xbae05e54	-0.0017117956
203	0x3dc8c809	0.09803779
204	0x3d7d5c9d	0.0618559
205	0x3d988c6a	0.07448657
206	0xbcbec58e	-0.02328756
207	0x3d937ffe	0.07202147
208	0xbccad55a	-0.024759937
209	0x3d70eedb	0.05882154
210	0x3dc86413	0.09784713
211	0xbcaa2114	-0.020767726
212	0x3d9fb41f	0.07798027
213	0x3d9c8ddc	0.07644245
214	0x3c9084f0	0.017641515
215	0xbb9212df	-0.004457816
216	0x3dad1f44	0.08453229
217	0xbc6e48e1	-0.014543743
218	0x3d476770	0.04868263
219	0xbd39eebe	-0.045393698
220	0x3d7b9a9d	0.061426748
221	0x3dc45bf6	0.09587853
222	0x3d8336fa	0.0640697
223	0xbd023374	-0.03178735
224	0x3d803091	0.06259263

linear3.weight f4 [225, 225]
0	0xbb8e7fcd	-0.004348731
1	0xbd26d130	-0.04072684
2	0xbd75fa3d	-0.0600531
3	0x3d732a49	0.0593665
4	0x3c859ae3	0.016309207
5	0xbd35e8fc	-0.044411644
6	0xbd416b98	-0.04722175
7	0xbd7bd6ce	-0.06148415
8	0xbb18f289	-0.0023337922
9	0x3b456089	0.0030117354
10	0xbc825c52	-0.015913162
11	0xbcbb6c9a	-0.022878934
12	0xbd78501f	-0.060623284
13	0x3d5ff941	0.054681066
14	0xbb2b6178	-0.0026150625
15	0x3d6a4747	0.05719688
16	0xbcdc9734	-0.026927568
17	0xbc04b4bc	-0.008099731
18	0x3d0a91fc	0.033830628
19	0x3d3c30a3	0.04594482
20	0xb9a1a001	-0.00030827525
21	0x3d4fc543	0.050725233
22	0x3d6c0cc3	0.057629358
23	0xbcf982b0	-0.030457824
24	0x3c427401	0.011868478
25	0xbd0d3fbe	-0.034484617
26	0x3d824c86	0.06362252
27	0x3ac3e223	0.0014944713
28	0x3d1083fe	0.035282128
29	0x3cd2c049	0.025726454
30	0x3d6962f6	0.056979142
31	0xbb908534	-0.0044104103
32	0xbd24f89a	-0.040276147
33	0xbd39c5c1	-0.04535461
34	0xbd25c554	-0.04047139
35	0xbcfae7f0	-0.030628175
36	0xbd708181	-0.058717255
37	0x3d492065	0.04910316
38	0x3abca2f0	0.0014391821
39	0x3d825a45	0.06364874
40	0xbc138e92	-0.009006159
41	0x3cc4af49	0.024009364
42	0xbd6789df	-0.05652797
43	0xbb0d7845	-0.0021586579
44	0x3d6ad445	0.057331342
45	0xbcdb0a16	-0.026738208
46	0xbc456e92	-0.012050288
47	0x3d25b7b2	0.04045839
48	0x3992d778	0.00028007827
49	0x3d01671c	0.031592473
50	0x3d181425	0.037128586
51	0x3c05b46f	0.0081606945
52	0x3d206a69	0.03916398
53	0xbcc2b612	-0.023768459
54	0xbcab1d5a	-0.02088802
55	0x3c4a5d45	0.012351339
56	0xbc980145	-0.018555293
57	0xbce202b0	-0.027589172
58	0xbc11ae92	-0.008891718
59	0x3d1a1f3e	0.03762745
60	0xbd34835e	-0.044070594
61	0x3c92651a	0.017870475
62	0x3d5e77c3	0.054313432
63	0xbd506e5a	-0.05088649
64	0xbd825067	-0.06362992
65	0xbc9f6ec1	-0.019461991
66	0x3d2b81c1	0.04187179
67	0xbd68995f	-0.05678689
68	0x3d829b7f	0.06377315
69	0xbbab2867	-0.005223322
70	0xbb291734	-0.0025801184
71	0x3c8a8e12	0.016913448
72	0xbd23367e	-0.03984689
73	0x3c68ac78	0.014201276
74	0x3d6e89bf	0.058236834
75	0x3d5a0296	0.053225122
76	0x3c93b27c	0.018029444
77	0x3d603ddf	0.054746505
78	0x3c50ff34	0.012756158
79	0x3d23db4d	0.040004063
80	0xbd6af385	-0.057361145
81	0xbd48b587	-0.049001243
82	0xbd787038	-0.060653895
83	0x3d2411ef	0.040056165
84	0xbc7c285f	-0.015390485
85	0x3bb162f0	0.0054134056
86	0x3d5ae716	0.053443037
87	0xbd471810	-0.048606932
88	0xbd06adde	-0.032880656
89	0x3d4e4256	0.05035623
90	0xbd84627c	-0.06464097
91	0x3d64353f	0.055714842
92	0x3d13aeb4	0.03605528
93	0xbc7ce0c5	-0.015434449
94	0x3d841fc8	0.06451374
95	0x3d0e022d	0.034670044
96	0xbd83bd8a	-0.06432636
97	0x3c766589	0.015038856
98	0xbd0fc53a	-0.0351002
99	0xbd682105	-0.056672115
100	0x3cf6b9ec	0.030117951
101	0x3d254721	0.040351037
102	0xbd875782	-0.06608488
103	0x3d3147b2	0.043281265
104	0xbd8696b4	-0.06571713
105	0x3cfb3781	0.030666115
106	0xbd031d7c	-0.03201054
107	0x3d2a18bc	0.041527495
108	0xbc8c7e09	-0.017149942
109	0x3d1a6b72	0.037700124
110	0x3ad35b78	0.0016125282
111	0x3ce0e581	0.027453186
112	0xbd1b4ebc	-0.037916884
113	0x3c8ab0da	0.016930033
114	0xbd7b36f2	-0.061331697
115	0x3a28e001	0.00064420706
116	0xbd221f47	-0.03958061
117	0xbc7be778	-0.015375011
118	0x3d704170	0.058656156
119	0xbd291a54	-0.041284874
120	0xbd775812	-0.060386725
121	0x3c67149a	0.014104033
122	0x3cf1e649	0.029528754
123	0x3d31d803	0.043418895
124	0xbc1ae267	-0.009453393
125	0xbd285cad	-0.041104008
126	0x3bceb689	0.006308381
127	0xbc2b5c2b	-0.010458986
128	0xbd05b074	-0.032638982
129	0xbd051076	-0.0324864
130	0xbd78b798	-0.060721964
131	0x3d22b058	0.039718956
132	0x3cf13605	0.029444704
133	0x3d3662b6	0.04452773
134	0xbd360acb	-0.044443887
135	0x3d535be1	0.051601294
136	0x3caa43c1	0.02078426
137	0xbd71b070	-0.059006155
138	0xbd87e396	-0.066352054
139	0xbd7b0330	-0.061282337
140	0x3d142921	0.036172036
141	0xbc9ad53c	-0.018900506
142	0x3c8f756f	0.017512051
143	0x3d375596	0.044759355
144	0x3bc73b78	0.0060800873
145	0xbd6dec3d	-0.058086623
146	0x3ccbce52	0.024878655
147	0x3d1aa927	0.037758972
148	0x3d3ae75c	0.045630798
149	0xbcf27812	-0.02959827
150	0xbcf0cdf4	-0.029395081
151	0x3d2b411a	0.041810133
152	0x3c6f8489	0.014619001
153	0x3d65ed63	0.056134593
154	0x3d430249	0.0476096
155	0xbd302049	-0.04299954
156	0xbabb859a	-0.0014306784
157	0xbd26fbe9	-0.040767584
158	0xbd785092	-0.060623713
159	0xbd5cad81	-0.053876404
160	0x3d03738b	0.032092612
161	0x3c3fdf3c	0.011710938
162	0xbd59f2e9	-0.053210173
163	0xbcd9cfeb	-0.0265884
164	0xbd6b7ae1	-0.057490233
165	0x3cedc2a7	0.029023482
166	0xbccfc8f8	-0.025364384
167	0x3c855b38	0.016278848
168	0x3d44a1f2	0.048006006
169	0xbcf42c5f	-0.029806314
170	0x3cf49605	0.029856691
171	0xbd32b756	-0.043631874
172	0x3cd626da	0.026141573
173	0x3d13c727	0.0360786
174	0xbd86396d	-0.06553922
175	0x3a4f42ab	0.00079063576
176	0x3d70d452	0.058796234
177	0x3d4cefb8	0.0500333
178	0xbd62d73f	-0.055381056
179	0x3d0779b6	0.033075057
180	0xbd0a8234	-0.033815578
181	0xbbeda634	-0.007252479
182	0xbd640490	-0.055668414
183	0x3bd770f0	0.0065747425
184	0xbcd8a00e	-0.026443508
185	0x3c62e123	0.013847622
186	0x3d1f9b07	0.038966205
187	0x3d3af6f8	0.045645684
188	0xbd6911c3	-0.056901705
189	0x3d7b80c7	0.06140211
190	0x3d813f38	0.06310886
191	0xbd570d72	-0.052503057
192	0x3c8b9e00	0.017043114
193	0x3ce02dbc	0.027365558
194	0x3c5c88d6	0.013460359
195	0xbd1d7cab	-0.03844897
196	0x3d6a1014	0.05714424
197	0x3d51a9d6	0.05118736
198	0xbcace696	-0.021106046
199	0x3d074578	0.033025235
200	0xbd3ff241	-0.04686189
201	0x3d11a692	0.035559244
202	0xbc8d8e05	-0.017279634
203	0xbcda1238	-0.026620016
204	0xbce5a2c9	-0.028031724
205	0x3b573401	0.0032837393
206	0xbd869fc9	-0.06573445
207	0x3cfb3885	0.030666599
208	0xbd3dbf65	-0.046325106
209	0x3d220f12	0.039565153
210	0x3c49f089	0.012325414
211	0xbd1f11a3	-0.03883518
212	0xbbe37134	-0.006940985
213	0x3c204cde	0.009783952
214	0xbd36c03a	-0.044616915
215	0xbbad7856	-0.005293886
216	0xbc89d6fc	-0.016826145
217	0xbd1223ba	-0.035678603
218	0x3c84fdab	0.01623424
219	0x3ca896bc	0.020579688
220	0xbc876c7c	-0.016531222
221	0xbd882acc	-0.06648788
222	0x3d396749	0.045264516
223	0xbc528bf0	-0.0128507465
224	0x3d50b59c	0.050954446
225	0xbd5b1489	-0.05348638
226	0xbd7e6101	-0.06210423
227	0x3dbfe482	0.09369756
228	0x3d205ad2	0.039149113
229	0x3d162914	0.03666027
230	0x3d3488dd	0.044075835
231	0x3daf633e	0.08563851
232	0xbc833be3	-0.016019767
233	0xbd4234fa	-0.047413804
234	0x3d4d6492	0.05014474
235	0x3cf05563	0.02933759
236	0xbd3a9954	-0.04555638
237	0x3d1fc694	0.03900774
238	0xbd3580d6	-0.04431232
239	0xbc79b39a	-0.015240574
240	0x3d0fff85	0.03515579
241	0xbb1cd06e	-0.0023927945
242	0x3d22b0fa	0.03971956
243	0x3c507c35	0.012724926
244	0xbd38a84b	-0.04508237
245	0xbd4a01a5	-0.049317975
246	0x3d308490	0.04309517
247	0x3dcd30f2	0.10019101
248	0x3db079e9	0.086170025
249	0xbcef62da	-0.02922194
250	0x3bda4a9a	0.006661725
251	0x3cd7106d	0.02625295
252	0x3d1de421	0.03854764
253	0x3da702ee	0.08154856
254	0x3c778556	0.015107473
255	0xbd487dfc	-0.048948273

linear3.bias f4 [225]
0	0xbd8773aa	-0.06613858
1	0x3d224507	0.03961661
2	0x3d0f87a1	0.035041455
3	0x3d9501fe	0.072757706
4	0x3c38ff8d	0.011291397
5	0xbd6d5616	-0.057943426
6	0x3d0f6ece	0.03501778
7	0x3d545826	0.051841877
8	0xbc6a6d70	-0.0143083185
9	0x3c22fb3f	0.009947597
10	0x3d34cd10	0.044140875
11	0x3da647cf	0.08119165
12	0x3d872fee	0.06600939
13	0xbc8deff4	-0.017326333
14	0x3d981b9b	0.0742714
15	0x3d6eae38	0.058271617
16	0x3cef9654	0.029246487
17	0xbc4aa05f	-0.012367337
18	0xbcbd0963	-0.023075765
19	0xbd35f010	-0.044418395
20	0x3dbc3fad	0.09191833
21	0x3d28d207	0.041215923
22	0xbcad7e49	-0.021178382
23	0x3c5a2cf8	0.013316385
24	0x3c0fa76f	0.008767947
25	0xbd61764b	-0.055044454
26	0xbcb1211e	-0.021622237
27	0x3d337804	0.043815628
28	0xbd7d660c	-0.061864898
29	0xbcae1fda	-0.021255422
30	0x3d4aeebc	0.04954408
31	0x3d8d4579	0.068980165
32	0xbd74bfba	-0.059753157
33	0xbd42a214	-0.04751785
34	0x3d1db3c6	0.038501523
35	0x3d01c16d	0.031678606
36	0xbcd9aa92	-0.026570592
37	0xbc51ad9a	-0.0127977375
38	0x3dbd622f	0.09247243
39	0xbb2719a0	-0.0025497451
40	0x3da92bf3	0.08260336
41	0xbd25fad4	-0.04052241
42	0xbd819f90	-0.06329262
43	0xbd4038b0	-0.04692906
44	0xbd665c61	-0.056240443
45	0xbab99801	-0.001415968
46	0xbc3a73a3	-0.011380109
47	0xbc8a3d56	-0.01687495
48	0xbc8a5cda	-0.016889978
49	0xbd1f7ab6	-0.038935386
50	0xbc93acd2	-0.018026743
51	0xbcca9d56	-0.024733227
52	0xbced9a56	-0.029004257
53	0x3d32a2ef	0.043612417
54	0x3d8a580c	0.06755075
55	0xba6a9a23	-0.000894936
56	0x3b3d25df	0.0028861684
57	0x3bbeb001	0.005819321
58	0xbd5181a9	-0.051149044
59	0x3db9795f	0.09056353
60	0x3dcf4fa3	0.101226114
61	0x3c7331cf	0.014843418
62	0xbd416d87	-0.047223594
63	0xbd1f9721	-0.038962487
64	0x3d19dcaa	0.037563957
65	0x3d03ce68	0.032179266
66	0x3d2b5d97	0.0418373
67	0xbd8676e6	-0.06565647
68	0x3c45a769	0.0120638395
69	0xbd613741	-0.054984335
70	0xbb82f389	-0.003996317
71	0x3d154a8d	0.03644805
72	0x3d5e7f3c	0.05432056
73	0xbc7243ab	-0.014786641
74	0x3d2250a7	0.039627697
75	0xbd873ac0	-0.066030025
76	0xbc229412	-0.009922998
77	0x3d1468a9	0.036232624
78	0xbcf40b3d	-0.029790515
79	0xbd52eb14	-0.05149372
80	0x3dca2d5e	0.09871934
81	0xbd1754ad	-0.036945987
82	0x3dc16420	0.094429255
83	0x3d6a1a1f	0.057153817
84	0xbc853696	-0.01626138
85	0x3cfe6067	0.031051828
86	0x3d03b58a	0.03215555
87	0xbd39ffd0	-0.045409977
88	0x3ced5d38	0.028975114
89	0x3cf328f1	0.029682608
90	0x3d0af0f2	0.03392119
91	0x3d887fe4	0.06665018
92	0x3dadfd3a	0.08495565
93	0xbd10032d	-0.03515928
94	0x3d33b7d2	0.043876477
95	0xbd775916	-0.060387693
96	0x3d248407	0.040164974
97	0xbc77dcac	-0.015128296
98	0xbd7f184e	-0.062279038
99	0xbd34bb21	-0.044123773
100	0x3d6be2bd	0.05758928
101	0xbd64e5c1	-0.055883173
102	0xbd67af8b	-0.056563895
103	0xbd465934	-0.048424914
104	0x3d40cd6e	0.047070913
105	0x3cd918b3	0.026501035
106	0xbc84f1f7	-0.01622866
107	0x3db9f722	0.0908034
108	0x3c9ca62b	0.019122204
109	0xbd201a4d	-0.039087582
110	0x3cd98599	0.026552962
111	0x3dd5f8d9	0.104478545
112	0xbb850c53	-0.004060307
113	0x3d0dcf4d	0.034621526
114	0x3d841c0c	0.06450662
115	0x3d43198b	0.04763178
116	0xbd585ec7	-0.05282476
117	0xbd676d63	-0.056500804
118	0xbd1b0c52	-0.037853546
119	0x3cafc334	0.021455385
120	0xbc18cb92	-0.009325879
121	0x3c30e638	0.010797076
122	0xbcc91541	-0.024546267
123	0xbd421a2b	-0.047388237
124	0x3dd0943f	0.10184526
125	0xbd709054	-0.058731392
126	0x3bed5c45	0.0072436654
127	0xbd5ff7a3	-0.054679524
128	0x3dc7e858	0.09761113
129	0x3c8de963	0.017323202
130	0x3d335563	0.043782603
131	0xbbc2e623	-0.0059478446
132	0xbd742c18	-0.059612364
133	0xbd46efdf	-0.048568603
134	0x3d5dda1b	0.05416308
135	0xbd381369	-0.044940386
136	0x3c1d50cd	0.009601784
137	0xbd40de2d	-0.047086883
138	0x3d0e7518	0.034779638
139	0xbd62f221	-0.055406693
140	0x3d3eb97b	0.046563607
141	0xbce83a41	-0.02834809
142	0x3c97ef65	0.01854677
143	0x3b0afb9a	0.0021207095
144	0xbd1969a5	-0.037454266
145	0x3c90e582	0.017687563
146	0xbcf7d844	-0.03025449
147	0x3d1c39b9	0.038140986
148	0xbd02d8da	-0.031945087
149	0x3d5917fc	0.05300139
150	0xbd55122e	-0.05201929
151	0xbcd705d2	-0.026247893
152	0x3db80c4c	0.089867204
153	0x3db9afb8	0.09066719
154	0x3d2b48cd	0.041817475
155	0x3dd2ebf3	0.1029891
156	0x3d1b7169	0.037949953
157	0x3dccd224	0.10001019
158	0xbcbb9eab	-0.022902807
159	0x3d357def	0.044309553
160	0xbd5e08a1	-0.054207448
161	0x3d2a76bc	0.04161714
162	0x3d923254	0.071385056
163	0x3d497b4b	0.049189847
164	0xbcb19e14	-0.021681823
165	0xbd236fa7	-0.0399014
166	0x3c05edcc	0.008174371
167	0xbcba39f0	-0.022732705
168	0xbbd12e46	-0.00638369
169	0xbd3b59aa	-0.045739807
170	0xbd37a085	-0.044830818
171	0x3d8403fc	0.064460725
172	0x3ca9bff1	0.020721408
173	0x3c46df36	0.012138179
174	0x3d9611e5	0.07327632
175	0xbbe5dc56	-0.0070147915
176	0x3d83ba8c	0.06432065
177	0x3dbbf546	0.091776416
178	0xbd1c9aa5	-0.038233418
179	0xbd1b22d4	-0.03787501
180	0xbd183c72	-0.03716702
181	0xbd340efa	-0.043959595
182	0x3d87ed96	0.06637113
183	0x3da58f4a	0.08083971
184	0x3d37e9e7	0.0449008
185	0x3ca55249	0.020180838
186	0x3db506c8	0.08839184
187	0x3d063e10	0.03277403
188	0x3dc195fa	0.09452434
189	0x3d55c80d	0.052192736
190	0xbd06aea3	-0.03288139
191	0x3d0c2928	0.034218937
192	0x3b4bee89	0.003111752
193	0xbb35a128	-0.0027714465
194	0x3c86e3fb	0.016466131
195	0x3d46c3f3	0.048526715
196	0xbcb1681e	-0.021656092
197	0x3cc82b8e	0.024434831
198	0x3c46a404	0.012124065
199	0xbce14a92	-0.027501378
200	0x3d4554c2	0.048176534
201	0x3cbec0b1	0.023285242
202	0xbd2df307	-0.042468097
203	0x3d464dd5	0.04841407
204	0xbd624bf0	-0.0552482
205	0xbd0f6c7e	-0.035015576
206	0x3d337f52	0.043822594
207	0xbd2eae28	-0.042646557
208	0x3ccec2c6	0.02523936
209	0xbd58eed6	-0.052962147
210	0x3bb37633	0.005476737
211	0x3915d3a9	0.00014288597
212	0xbd536dab	-0.05161826
213	0xbd3efd5f	-0.046628352
214	0xbd8851ab	-0.06656202
215	0x3d6bdbd1	0.05758268
216	0xbd680af4	-0.05665107
217	0xbd4b7e1f	-0.049680825
218	0xbd26d105	-0.04072668
219	0xb9c13157	-0.0003684859
220	0xbd329847	-0.043602254
221	0xbd5b78c7	-0.05358198
222	0xbd1f22a7	-0.038851406
223	0xbcec2234	-0.028824903
224	0xbd86024b	-0.06543406

linear4.weight f4 [50, 225]
0	0xbd04d16f	-0.032426294
1	0x3da82792	0.082106724
2	0xbcefd33f	-0.029275535
3	0x3dd8b023	0.105804704
4	0xbc03e36a	-0.008049825
5	0xbc933f6b	-0.017974576
6	0x3d49d8b9	0.04927895
7	0xbcb928b9	-0.022602426
8	0xbb1c1512	-0.002381627
9	0xbc1acc24	-0.009448085
10	0xbd03fb74	-0.032222226
11	0x3d1f310b	0.03886513
12	0x3d24e40a	0.040256537
13	0xba8ec400	-0.0010892153
14	0x3de7b63e	0.11314057
15	0x3defbd59	0.11706037
16	0xbd34ea09	-0.044168506
17	0x3d33b3c9	0.04387263
18	0x3d411b1f	0.047145005
19	0x3cf59727	0.029979302
20	0x3d81d6a1	0.06339765
21	0x3d5bfa2c	0.05370538
22	0x3cb42c4d	0.02199378
23	0xbceef33e	-0.029168721
24	0x3ce536b0	0.027980179
25	0x3cf066e3	0.029345935
26	0xbd856159	-0.06512708
27	0xbcb29d38	-0.021803483
28	0x3c4fa34e	0.012673212
29	0x3d867dbc	0.06566951
30	0xbcb0c5b0	-0.02157864
31	0x3df5f853	0.12010255
32	0xbcd8eea3	-0.026480978
33	0xbd847699	-0.06467933
34	0x3d37cb31	0.044871513
35	0x3d155788	0.03646043
36	0xbc632e56	-0.013866028
37	0xbc5fe5e9	-0.013665655
38	0x3da6b812	0.081405774
39	0xbce27c35	-0.027647117
40	0x3dee4bf7	0.11635583
41	0x3d74344f	0.059620198
42	0x3d8161da	0.06317492
43	0xbd2972d0	-0.04136926
44	0x3c2e5ec5	0.010642712
45	0xbd3dedf0	-0.046369493
46	0xbd88736a	-0.066626385
47	0xbd33faa5	-0.043940205
48	0x3d1cb083	0.038254272
49	0xbd13ae41	-0.036054853
50	0x3ce82cb0	0.028341621
51	0xbc8c98d6	-0.017162722
52	0x3c68e134	0.014213849
53	0x3df1457c	0.11780831
54	0x3d84abe4	0.06478098
55	0xbd3c8cbc	-0.046032652
56	0xbceed95f	-0.029156385
57	0x3caa3feb	0.020782432
58	0x3cb64412	0.022249255
59	0x3db8cad3	0.09023061
60	0x3da3c008	0.079956114
61	0xbd5549f9	-0.0520725
62	0x3d47c190	0.04876858
63	0x3d24d4d2	0.040242024
64	0xbcd587eb	-0.026065787
65	0x3bda3e50	0.0066602603
66	0x3d6090e5	0.054825682
67	0x3d266d1a	0.04063139
68	0xbafc526b	-0.0019250637
69	0xbc7a252c	-0.0152676515
70	0x3d0466ad	0.03232448
71	0xbd067723	-0.03282846
72	0x3d5dcc49	0.0541499
73	0xbd363b9c	-0.04449044
74	0x3dd0b0b7	0.10189956
75	0xbce72581	-0.028216125
76	0x3c074fe7	0.008258796
77	0xbd333e51	-0.0437606
78	0x3d10b14f	0.035325345
79	0xbd55f934	-0.05223961
80	0x3dedaadf	0.11604857
81	0x3c0a5f3c	0.008445557
82	0x3d8ec98b	0.06972035
83	0x3dcc0561	0.099619634
84	0xbd07b947	-0.03313568
85	0x3cf129cd	0.029438877
86	0xbccf2f72	-0.025291178
87	0x3bfb8745	0.0076760375
88	0xbc3764c4	-0.011193458
89	0xbcaee77f	-0.02135062
90	0xbd2aed9f	-0.04173052
91	0x3d8d5d46	0.06902556
92	0x3db4f60d	0.08835993
93	0xbc277f67	-0.010223246
94	0xbd3a792b	-0.04552571
95	0xbcffb2c9	-0.031213181
96	0xbd14e4fc	-0.03635119
97	0x3cea14a3	0.028574293
98	0x3aac2001	0.0013132097
99	0xbd476d69	-0.048688326
100	0x3df31738	0.11869663
101	0xbbdc7c34	-0.0067286734
102	0xbd063e23	-0.032774102
103	0x3c8a7dd2	0.016905699
104	0x3df3b063	0.118988775
105	0xbc911ce6	-0.017713975
106	0x3c918b65	0.017766664
107	0x3dbf5b4e	0.09343587
108	0xbc564bdc	-0.01307961
109	0x3d23376b	0.039847773
110	0x3d42a59f	0.04752123
111	0x3d6271cd	0.05528431
112	0xbd56f4d1	-0.05247957
113	0x3d526855	0.05136903
114	0x3cfd3820	0.030910552
115	0xbd1fc03c	-0.03900169
116	0xbc439a70	-0.011938676
117	0xbcc24341	-0.02371371
118	0x3d5e4d5a	0.054272987
119	0xbd4d799f	-0.050164815
120	0xbd742110	-0.059601843
121	0x3db2ee70	0.087368846
122	0xbbcab123	-0.006185667
123	0xbcc38201	-0.023865702
124	0x3dc22da5	0.09481362
125	0xbd744e45	-0.059644956
126	0xbd3ca1cd	-0.046052743
127	0xbd354db2	-0.04426355
128	0x3df75228	0.12076217
129	0xbd0d92c0	-0.03456378
130	0x3de182a1	0.110112436
131	0x3d2a6e1d	0.04160892
132	0x3c647423	0.013943705
133	0xbca00423	-0.019533223
134	0x3b4b0a0d	0.0030981333
135	0x3d4e4761	0.05036104
136	0x3c28ac89	0.010295042
137	0xbc56d412	-0.013112085
138	0x3da49fad	0.08038268
139	0x3bcc2012	0.006229409
140	0xbcd12f74	-0.025535323
141	0xbd2dcda3	-0.04243244
142	0x3ca1accc	0.019735716
143	0x3d87d6e5	0.06632785
144	0x3d60af76	0.054854833
145	0xbd40d835	-0.04708119
146	0xbd1ab3a5	-0.03776898
147	0x3b51ff72	0.0032043126
148	0x3cbd5eb8	0.023116454
149	0x3dd5c098	0.10437125
150	0x3d1d4f61	0.03840578
151	0xbd297370	-0.041369855
152	0x3df2fe1b	0.11864873
153	0x3d8b1b6a	0.06792338
154	0xbcc64d18	-0.024206683
155	0x3d80145e	0.06253885
156	0x3e0dc8f0	0.13846183
157	0x3de992a6	0.11404924
158	0x3d873abe	0.06603001
159	0x3abac2a5	0.0014248682
160	0xbc2bcf4d	-0.010486436
161	0xbd526756	-0.05136808
162	0x3dcd8a3a	0.1003613
163	0xbd02f93b	-0.031975966
164	0xbd113290	-0.03544861
165	0x3d7a2b8e	0.061076693
166	0xbd5d1749	-0.053977285
167	0xbc9e95eb	-0.019358596
168	0xbc605c6f	-0.013693913
169	0x3d65ef24	0.056136265
170	0xbc459681	-0.012059809
171	0x3d97d775	0.07414142
172	0x3b10f0dd	0.0022116222
173	0xbcac44e2	-0.02102894
174	0x3dd5d801	0.1044159
175	0xbc92e889	-0.017933147
176	0x3be617ff	0.0070219035
177	0x3de7c0e5	0.113160886
178	0x3d25ee63	0.040510546
179	0xbd0b71f8	-0.034044236
180	0x3d09f989	0.03368524
181	0x3ca03bda	0.01955979
182	0x3e0a68d5	0.13516553
183	0x3dced201	0.10098649
184	0x3d9289db	0.071552
185	0xbcdd4bf2	-0.027013753
186	0x3d86d7cf	0.06584131
187	0xbc95010b	-0.018188974
188	0x3dbe50d0	0.092927575
189	0x3d5c38d6	0.05376514
190	0x3d7793a7	0.060443547
191	0xbd3482d3	-0.044070076
192	0xbc9b3ee3	-0.018950885
193	0x3cc97f6c	0.024596892
194	0xbcf4316a	-0.029808719
195	0x3b06a6ca	0.0020546191
196	0x3c5cd8ce	0.013479425
197	0xbc852bf2	-0.016256306
198	0x3c6c20ae	0.014412088
199	0x3c4bb834	0.012434054
200	0x3c36b0e1	0.01115057
201	0xbce29c7a	-0.027662504
202	0x3d7bf67f	0.061514374
203	0xbd197e4e	-0.03747397
204	0x3be93f46	0.0071181385
205	0xbd031df7	-0.032011
206	0x3d205bca	0.039150037
207	0xbcb68545	-0.022280345
208	0xbcda38d5	-0.026638428
209	0x3cbdc39f	0.023164568
210	0xbc20211f	-0.009773522
211	0xbd6416c6	-0.05568578
212	0x3c5bdddf	0.013419597
213	0xbcdd3849	-0.027004378
214	0xbb5ad07c	-0.0033388427
215	0x3dae9942	0.08525325
216	0xbcfbf1c1	-0.030754926
217	0xbd4ab4cb	-0.049488824
218	0xbd1b4f54	-0.03791745
219	0xbd48a06f	-0.048981126
220	0x3d5ea50e	0.054356627
221	0x3cf55241	0.029946448
222	0xbc19a4ef	-0.009377702
223	0x3d0e36f8	0.03472039
224	0xbccb48b0	-0.024814934
225	0x3cebfd45	0.028807292
226	0xbceada4e	-0.028668549
227	0x3c18d0ab	0.009327094
228	0x3c7fc1a3	0.015610131
229	0x3ccbfd38	0.024901018
230	0xbd32d0de	-0.043656223
231	0x3d0da1d6	0.034578167
232	0x3baeb09a	0.005331111
233	0xbca94127	-0.02066095
234	0x3c8254ab	0.015909513
235	0xbc8bbd6f	-0.017058102
236	0x3d0f8bc5	0.035045404
237	0xbca02dde	-0.019553121
238	0x3cf1a756	0.029498737
239	0xbd617a4b	-0.05504827
240	0xbd2063f4	-0.039157823
241	0xbc37d209	-0.01121951
242	0x3d26cd3a	0.040723063
243	0x3d05e5c7	0.032689836
244	0x3cd4c116	0.025970977
245	0x3a064eef	0.00051234564
246	0xbd4bb616	-0.049734198
247	0x3c18eca3	0.009333762
248	0x3b869412	0.004107007
249	0xbba1c034	-0.0049362425
250	0x3d4d0a10	0.050058424
251	0xbd7a1578	-0.06105563
252	0x3d26ce23	0.04072393
253	0xbd20c99c	-0.03925477
254	0xbd55170b	-0.05202393
255	0x3a91dc89	0.0011128347

linear4.bias f4 [50]
0	0x3da67206	0.08127217
1	0x3c2e3f4d	0.010635209
2	0x3b941612	0.0045192325
3	0xbcad01a7	-0.021118952
4	0x3cb080d2	0.021545801
5	0x3d5b5823	0.05355085
6	0x3ca60e78	0.020270571
7	0xbc84254d	-0.016131068
8	0x3ccd77ce	0.025081541
9	0xbd2eb605	-0.042654056
10	0xbd69eba9	-0.05710951
11	0xbd01b098	-0.031662554
12	0xbd84867b	-0.064709626
13	0x3ca58aa3	0.020207709
14	0x3d4a6c6d	0.04941981
15	0xbd12e403	-0.03586198
16	0x3b207667	0.0024484636
17	0xbd34269c	-0.043982133
18	0xbd0ad8e5	-0.033898253
19	0x3d2460e9	0.040131483
20	0x3d72531f	0.0591613
21	0xbd870efe	-0.065946564
22	0xbbbaa3bc	-0.005695788
23	0xbc5ecd4e	-0.013598753
24	0x3d1f8563	0.038945567
25	0x3d17fc7a	0.037106015
26	0x3b1f4667	0.0024303438
27	0xbc88c75e	-0.016696628
28	0xbd6da036	-0.058014117
29	0xbb03b534	-0.002009702
30	0x3d6cf829	0.05785385
31	0xbcfcb612	-0.030848537
32	0x3d77a938	0.060464114
33	0xbcff695a	-0.031178165
34	0x3c356f56	0.011073908
35	0x3cb45189	0.022011535
36	0xbc902b0d	-0.017598653
37	0x394adddf	0.00019346875
38	0xbd71e669	-0.059057627
39	0x3d3f233a	0.046664454
40	0xbd32b8e3	-0.043633353
41	0xbc056cef	-0.008143648
42	0x3b577623	0.0032876811
43	0x3cb1f152	0.021721516
44	0xbd84f1f4	-0.064914614
45	0xbd6f329d	-0.058397878
46	0x3d0a8832	0.033821292
47	0xbbc39312	-0.00596846
48	0xbceecfb4	-0.029151775
49	0x3b925f34	0.0044669155
